model/best_roadcnn.pth (torch, 83068 bytes, 7 tensors)

conv1.weight f4 [32, 7, 3]
00000000: eed6 e53e 24b1 48bc 3a3c 02bc 086f a23d
00000010: 723e a2bc 6b1a 90bd 0546 18be 7e6a b03e
00000020: 05c1 553e b4c9 c13d 54e0 d23e 0d98 673e
00000030: 8e3a ce3e fcd5 6e3e f2e0 aabd c2de 65be
00000040: 2d31 8e3e 09e9 8c3c 627a 41be e40a f93c
00000050: 8848 84bd 38c0 50bd 7449 60bd 0a4f ba3d
00000060: 828f 4fbe fdb9 a8be ca85 e0bd 5e67 97be
00000070: e7dd 213e 4586 fabe a874 973e b6de a9be
00000080: e4b7 e03e 7dc4 193d 74aa bbbd de2b 39bc
00000090: b850 d7bd 377e 203e ba61 d3bd b855 b5bd
000000a0: 8327 193c d7b3 8ebd e135 d6bb c576 aa3e
000000b0: 55b4 453e 4e5e cdbd ca53 703d ac1e 6cbd
000000c0: 3183 10bd 4c35 99be ea9c babe 5731 01bf
000000d0: 8dd4 c53d 2757 813e 32ce f03d 82fa 8a3e
000000e0: e42b efbc 0bd8 c8be dbe6 b93e 98ac 083e
000000f0: 6928 053e c000 94be 8bef c43d da5d 76be
00000100: a7e2 163e ab60 c1bd 1332 1d3e 9457 b8bd
00000110: a7e6 3fbe 8afd b2be 7b3c 673e b669 bfbe
00000120: 114c 2a3e 4a57 43be b6b7 09be 22af bbbe
00000130: cc35 abbe a133 9c3e e176 d13d 30a6 923e
00000140: 3ca9 b9be 87e2 2ebd 4b16 413d 3c0a 11be
00000150: 4000 67bd c01b e9bd f139 ee3d fee6 37be
00000160: a440 48be 5f84 6c3e 692b e83d 09d5 68be
00000170: 7419 393e 82db 433e dc69 75be 1a37 c2bd
00000180: 6297 ec3d b170 eebd 4a57 52be 546d 3fbf
00000190: 8e13 9bbe 5fdd d2be c64e b03d b0dc 7dbe
000001a0: 3296 c5bd f387 a6be 5dea a9be 70bb c5be
000001b0: d09d 85be f104 83be 63bd a23d e7de 593c
000001c0: 709e ca3d fb9e 57be 6010 adbd 7da6 62be
000001d0: 2f9f 77bd aa23 f1be d42e c4bd 1dac 7b3e
000001e0: 25ab 373d 80ee 2cbe 1555 89bd 8622 e4be
000001f0: cf42 c0be 2000 aebe 5385 1fbe 10c7 a8be
00000200: ef86 713e 566e 5a3d 16d6 873e 1186 8a3a
00000210: 2c6b c3be 1005 383e 5aec 2abc b68b 94be
00000220: ee26 0bbd 912b c8bd 5249 45bd 596c 35be
00000230: 41ce 903e 577c e5be 028b 8a3e cf94 dfbe
00000240: 044a b23c cbb5 6d3e db56 933e 62f8 b43e
00000250: 866d 093f 6e13 05be e69d 6f3e 86fc 7dbd
00000260: f873 02bc c3d3 46be dfa1 c23b 35bd 6abe
00000270: 942c 803e cbd5 9d3e ff05 4fbb 6ac8 15be
00000280: 98ac fe3e c144 bc3d 8b94 953d d042 a9be
00000290: 66a9 e9bc 78e4 b6bd 2c3e 51bd 970b bc3e
000002a0: 1a3a a53c 87e2 07be abe4 7dbe 593a 41bd
000002b0: ae2f 1f3e b50b afbd 907b 71be 593c 1d3e
000002c0: 5bee 7fbe eb6e 2b3f 9109 ac3e 1fbf 143e
000002d0: 8c41 683e 53a3 de3e 96c7 fe3c 0c42 6fbe
000002e0: 412f 9f3d 7a49 343e 14f1 473d 38c0 8bbd
000002f0: b01a 0ebd 6b9e a2be 5187 d8be 63b8 91be
00000300: 638d 763e 4d01 593e 8991 80be 2fc3 16be
00000310: 05da 843d 9195 863d 9028 87bd 71fd a13e
00000320: 9f2a bebe dddd 2dbe 1755 493e 53ca b53e
00000330: 3b9e 85be 3f05 29be f488 8cbe 1140 ddbe
00000340: 56ea 88be bd9c 54be ee3e fc3c 6bfc c53d
00000350: b358 24be 845d 77bc 44bf 4a3d f69a d33e
00000360: 40a9 adbd 485e b7bd fc87 2f3e b84e eebd
00000370: c8b6 a1bd d62c 2b3e 027f aabd b2b5 de3b
00000380: c421 2bbe e456 583e ec4a c03e 43f4 a73c
00000390: c813 7bbd 63aa 90be 142f 98be 8c37 c33e
000003a0: 4606 c93e 82f0 b23e 7a43 303d 8fda 3a3d
000003b0: 7e8f 07be b59f 78be d111 76be 6f02 66be
000003c0: 531c 36bd 4777 68bd 789b fabd b417 793a
000003d0: 1f1a 1b3e 5171 21be b4eb a7be a62c 823d
000003e0: af99 3bbe ce56 0a3e ecf3 b4bd 5d98 19be
000003f0: 332a 433d cedd 433c b7a6 56bc b65b 9abe
0.4489054 -0.012249265 -0.007948929 0.07931334 -0.019805167 -0.07036289 -0.1487046 0.34456247
0.20874412 0.094623 0.41186774 0.22616597 0.4027905 0.23323816 -0.08343686 -0.22448257
0.27771893 0.017200964 -0.18894342 0.0304007 -0.06459147 -0.050964564 -0.05475755 0.09097107
-0.20269588 -0.32954398 -0.10963018 -0.2957105 0.15807305 -0.48930565 0.2958119 -0.33177727
0.43890297 0.0375409 -0.09163371 -0.011301963 -0.10513443 0.15673147 -0.10321374 -0.0885424
0.009347799 -0.069678955 -0.0065371846 0.3329374 0.19307072 -0.10027753 0.058673657 -0.05764644
-0.035281364 -0.29923475 -0.3644784 -0.5046591 0.096596815 0.25261804 0.11758079 0.27144247
-0.029195733 -0.39227328 0.3630894 0.1334709 0.13003697 -0.28906822 0.09616002 -0.24059239
0.14734899 -0.09442266 0.15351133 -0.09001079 -0.1874033 -0.3495906 0.22581665 -0.3738534
0.1663058 -0.19076267 -0.13448986 -0.36657053 -0.3343948 0.3050814 0.102277525 0.28642416
-0.36261928 -0.042696502 0.0471404 -0.1416406 -0.056396723 -0.11382246 0.11632145 -0.1795921
-0.19555908 0.2309737 0.11336405 -0.22737516 0.18076116 0.19126704 -0.23966163 -0.09483166
0.115523115 -0.11642588 -0.2054111 -0.74776196 -0.30288357 -0.41184518 0.08608775 -0.24791217
-0.09647788 -0.32525596 -0.33186617 -0.38619566 -0.26096964 -0.25589707 0.07946279 0.013297773
0.09893501 -0.2105674 -0.08450389 -0.22133823 -0.060454544 -0.47097522 -0.09579244 0.24577375
0.04484095 -0.16887856 -0.06705681 -0.4455759 -0.3755097 -0.3398447 -0.15578203 -0.32964373
0.2358663 0.05332788 0.26530522 0.0010568519 -0.38167703 0.17970681 -0.010432327 -0.2901284
-0.033972673 -0.09773935 -0.048165627 -0.17717113 0.2828236 -0.44821426 0.2705918 -0.4366822
0.021763809 0.2321388 0.28777203 0.3534575 0.53682745 -0.12995693 0.23400077 -0.062008403
-0.007962219 -0.19416718 0.0059397067 -0.22923739 0.2503401 0.30827174 -0.0031589267 -0.14627233
0.49741054 0.09192801 0.07303723 -0.33058786 -0.028523158 -0.08930296 -0.051084682 0.36727592
0.020169307 -0.13270007 -0.24794261 -0.047174785 0.15545532 -0.08547155 -0.23582292 0.15355052
-0.24993269 0.6696612 0.3360105 0.14526032 0.22681254 0.43483981 0.03110103 -0.23365039
0.07772685 0.17606154 0.048813894 -0.06823772 -0.03469342 -0.31761488 -0.42290738 -0.28460988
0.24077372 0.21191902 -0.25111035 -0.14722894 0.064868964 0.06571496 -0.065995336 0.31638673
-0.37141892 -0.16979165 0.19661365 0.35505924 -0.26097283 -0.16505907 -0.27448237 -0.4321294
-0.26741284 -0.20762916 0.030791726 0.096672855 -0.16049461 -0.015097979 0.04949881 0.41329163
-0.084795475 -0.089535296 0.17141718 -0.11636108 -0.07896191 0.16716322 -0.08325006 0.006796562
-0.167121 0.21126896 0.3755716 0.020502215 -0.06129816 -0.28254995 -0.29723418 0.38128316
0.392626 0.34949118 0.0430331 0.04561859 -0.13238332 -0.24279673 -0.24030234 -0.22461866
-0.044460606 -0.056754377 -0.122366846 0.0009502128 0.15146683 -0.15765883 -0.32797015 0.06356172
-0.18320344 0.13509676 -0.08835587 -0.14999528 0.047647666 0.011954738 -0.013101271 -0.30148095

conv1.bias f4 [32]
00000000: 3205 8abd 9ba6 bfbd 1cfa c0be c34c 40bc
00000010: 9e0d 4ebe afb8 9abe 673b e7be 19f9 c2be
00000020: 0981 41be 4933 24be 01b0 8cbe c60f cdbe
00000030: 4f18 c9be 459e c63e 15c8 8abe 9f06 95be
00000040: b335 b8be 90b1 c8be ce07 04be 7c59 5d3d
00000050: 9a4f 40bd e2da 34be 56be 67be 3a42 9b3d
00000060: 9e72 f3bc 3aa5 a13c 59da e6be 5a9d 743c
00000070: 7072 debd b01c d7be e686 84be fa09 c4be
-0.06739272 -0.09357949 -0.37690818 -0.011737051 -0.20122382 -0.30219027 -0.45162508 -0.3808067
-0.1889688 -0.16035189 -0.2747803 -0.40051097 -0.39276358 0.38792625 -0.27105775 -0.29106614
-0.3597847 -0.3919797 -0.12893602 0.054040417 -0.046950914 -0.17661622 -0.22631201 0.07580991
-0.02971774 0.019732106 -0.4508846 0.014930094 -0.10861671 -0.42014074 -0.2588417 -0.38288862

conv2.weight f4 [64, 32, 3]
00000000: 0c5b ad3d 779b 09be b116 d8bd 8c07 243d
00000010: 812e 1e3e b8a7 ca3d f1f9 d93b 9e2f 4fbc
00000020: 3cb8 f03d 0ffa c0bd 355d a43d 6449 ed3d
00000030: ce86 a63d 82a7 16be aa3a 60be 760c 7dbe
00000040: 0b0c e2bd 6eca 06be 9d3b 963e 73a2 3a3d
00000050: 8782 2f3e c617 d03d fa9f bb3c e596 c2bd
00000060: be7a c3bd 12fe b4be 92cc 3fbe 066b fb3d
00000070: 8907 1abe d3ef 383d 273b ecbb 0505 3abd
00000080: d3d5 4abe 0ae7 483e 7caf 953d 0ff6 5f3d
00000090: 6105 45bd b443 503e 4479 613e 17a3 8d3e
000000a0: 4faf 65bd 7ebc 0d3d 2f37 1ebe 0836 47be
000000b0: b022 64bd 2ccc 0f3e eb4f 833e 2a5f 0e3e
000000c0: 40a4 66be f7c8 a93d 3493 d43d 2b8c 40be
000000d0: 1c7f aebe 9860 293c 114e 9b3c a3d3 a23e
000000e0: f56e 87bd 7372 e13d 4deb 59be 4dd9 47be
000000f0: 7c97 c1bc ca2e 733e 91f2 b53c aa4e a43c
00000100: 57de d23a ac71 863e 6582 eebd ed7a ecbd
00000110: 2a8d 0dbf d861 043e f862 35be d650 c8bd
00000120: 4224 44bd 12c4 8ebe 905d 58be b887 a8be
00000130: c53a 1cbe 4827 98be eef0 c53d c068 3dbd
00000140: 7834 43bd 61f0 febe d15a 3f3d e92c 963e
00000150: f7a2 06be 011c fc3d 47de 0cbf e44f 9d3d
00000160: 34dd eb3d 1a23 d2bb e597 2e3e e85d 10bf
00000170: 88c7 8dbe d186 933c 26f3 413e 94ac 653e
00000180: b7b8 03be 2198 0c3e f0a9 2abe 5c43 a83d
00000190: fa32 43be bfcb a03d 223d 3abe 8228 5e3e
000001a0: 3088 233e 2306 99be 1607 45be eecf a1bd
000001b0: 3af3 1fbe dc27 9dbe 1f97 843e cd21 e6bc
000001c0: cc5c 423e 51a7 a33d e091 033d a92a a13d
000001d0: 5f3d 7b3e 989d 76bc f9a2 fdbe b6c8 993d
000001e0: 8d62 b13d c06d 95be a7ef 263e 86cf 85be
000001f0: 86b2 963d 0ec9 44bd c4d7 253e 6d45 543e
00000200: c5d7 86be d08e 923d 6e2b 70be 7db4 22bb
00000210: ac5c 9b3b 3eb4 b3bd fee9 2cbc 5c2a 333e
00000220: 8610 7d3d 8628 8b3c e301 0dbe 2955 8cbe
00000230: 2017 88be b27f c3bd 7c0a 93be 439c 04be
00000240: 093e 99be 5d8d 2c3d 01fe 2eba c56e 1dbe
00000250: f2a0 25bd e927 233d 6b40 75be 6f5a cc3e
00000260: fd7f 663e b84c 6bbe 74a0 793e f4d8 5f3e
00000270: a70e b83b bdd5 8abe 9876 6c3e 5da9 09be
00000280: dbf7 c7be 87b7 59bc c8f6 ea3d 52e2 b23c
00000290: 8c2a 1bbd c2ee a1bc af54 573d 679f 313e
000002a0: d193 96bd dc67 f3bc 4bea a3bd d492 9dbd
000002b0: 52b3 e43d 2694 d1bc 2bb4 19be 90d7 30bd
000002c0: a7c6 c7bd f51c 243e f028 afbb 7dd7 c13d
000002d0: 83a7 8f3d 8ada 0f3d 3f0b c7be 1c02 5cbe
000002e0: 82de 12bf 6908 543e c6aa 493e e6e6 cabe
000002f0: 6eab 923e ad8b 46be ca22 083e 1753 3fbe
00000300: 4cf5 d63e 94ad f6be 7c6a 08be 9872 0abc
00000310: 56c5 c7bc efd3 003e afe3 07bd e9e0 8bbe
00000320: 8914 45bd 3b0b 45bd 1fcd cabd 7ced 053d
00000330: bb51 4d3e 9a10 68bd 36ce 31be 48d1 843e
00000340: e658 5e3e e05e 7c3e e134 1bbd 05c5 64be
00000350: b891 d7bd 7bbd ccbe f448 06bf 8b6b 79be
00000360: b407 82be a676 2dbe 1a22 11be 885c c33c
00000370: 2cbb 243d 88ef fd3c 2518 21be d0ac ce3d
00000380: 1060 323b 9294 81be 1cb2 d8bd 9f2f 95be
00000390: 2663 3fbe 9fab d9bd 1459 0bbe f4d8 18bf
000003a0: 4cd9 d8be 3ff8 1bbf 9916 f73d 7ee1 5dbe
000003b0: ec14 8bbd eb77 103e 03f8 8f3e ae64 2b3e
000003c0: 0fb8 e1be c4e2 213e e4d2 763e 8982 51bd
000003d0: 8e24 10be 72c2 1b3d 7e48 ccbd 3ab9 9fbe
000003e0: 5c7d cc3e e039 dcbc 091c 23be 7358 d8be
000003f0: 77f5 8bbc d601 f3bd 976f 1a3e 9b62 8dbc
0.084646314 -0.13438211 -0.10551203 0.04004626 0.15447427 0.09895271 0.00665211 -0.01264563
0.1175389 -0.09422695 0.0802559 0.11586264 0.08131181 -0.14712337 -0.21897379 -0.24711785
-0.11037453 -0.13163158 0.29342356 0.04556508 0.17139636 0.101607844 0.022903431 -0.09501437
-0.095448956 -0.3535009 -0.18730381 0.122762725 -0.15041937 0.04515059 -0.0072092 -0.045414943
-0.1980813 0.19619384 0.073088616 0.05467802 -0.048100833 0.20338327 0.22018915 0.2766349
-0.05607539 0.03460359 -0.15450738 -0.19454205 -0.055697143 0.14042729 0.2564691 0.1390349
-0.22523594 0.08290284 0.10379639 -0.1880347 -0.34081352 0.010337971 0.018958123 0.3180209
-0.0661296 0.110081576 -0.21281166 -0.19516487 -0.023631804 0.23748317 0.022210391 0.020057041
0.0016087991 0.262586 -0.116459645 -0.11546884 -0.55293524 0.1292795 -0.17713535 -0.09781043
-0.04788614 -0.27883965 -0.21129441 -0.32916045 -0.15256794 -0.2971747 0.09665094 -0.046242476
-0.04765746 -0.4979277 0.04671747 0.2933114 -0.13148104 0.12310029 -0.5502667 0.076812536
0.115168005 -0.006412876 0.1705013 -0.5639329 -0.27691293 0.018008621 0.1894041 0.22429115
-0.12863432 0.13729908 -0.16666389 0.08215973 -0.19062415 0.078513615 -0.18187383 0.2169514
0.1596992 -0.29887494 -0.19240984 -0.079009876 -0.15620127 -0.30694473 0.25896546 -0.02809229
0.18980712 0.079908974 0.03212154 0.07869465 0.2453513 -0.015052222 -0.495384 0.07508986
0.08661375 -0.29185295 0.16302358 -0.2613489 0.073582694 -0.048043303 0.1619559 0.20729609
-0.26336494 0.071561456 -0.23454067 -0.0024826818 0.004741272 -0.08774613 -0.010553835 0.17496628
0.061783336 0.016987097 -0.13770251 -0.27408722 -0.26580143 -0.0954584 -0.28718936 -0.12950234
-0.29930142 0.042127002 -0.0006675423 -0.15374286 -0.040436693 0.039832983 -0.23950355 0.39912745
0.22509761 -0.22978485 0.24377614 0.21860105 0.005616981 -0.27116194 0.23092115 -0.13443513
-0.39056286 -0.013288385 0.11472851 0.021836434 -0.037882373 -0.019767169 0.052570995 0.17345963
-0.073524125 -0.02971261 -0.08003672 -0.07694021 0.11167015 -0.025583338 -0.15010135 -0.043174326
-0.09754687 0.16026671 -0.0053454563 0.09464929 0.07014372 0.035120524 -0.38875768 -0.2148518
-0.5737077 0.20706333 0.19694051 -0.39629287 0.28646415 -0.1938922 0.13294521 -0.1868404
0.41984022 -0.48179305 -0.1332187 -0.008450173 -0.02438609 0.12580846 -0.03317612 -0.2732003
-0.048115287 -0.048106413 -0.09902405 0.032697186 0.20050709 -0.056656457 -0.1736382 0.2594092
0.217136 0.24645567 -0.037892226 -0.22340782 -0.105258405 -0.39988312 -0.5245507 -0.2435743
-0.25396502 -0.16939792 -0.14173165 0.023847833 0.040217564 0.030998006 -0.15731867 0.10091555
0.0027217902 -0.25308663 -0.10580847 -0.29137895 -0.18690166 -0.10628437 -0.136082 -0.59706044
-0.42353284 -0.6092567 0.12064857 -0.2166805 -0.067911 0.14108245 0.28118905 0.16737625
-0.44085738 0.1580916 0.24103886 -0.05114988 -0.14076445 0.038027234 -0.09974764 -0.31196004
0.39939392 -0.026883066 -0.15928663 -0.4225498 -0.01708482 -0.118655846 0.1508163 -0.017258933

conv2.bias f4 [64]
00000000: 9b66 12be d494 8b3d 8389 173e bb00 243d
00000010: f586 07bd 91a1 f5bd 5585 5f3e b577 483d
00000020: 6e46 ec3d 5428 6d3c de84 83bd 4c96 013e
00000030: b8db 633e 356b b63d 5857 093e 3e48 293d
00000040: c242 f6bb 0c73 bfbd fc4d a23b ef5e 0cbe
00000050: ac20 2cbe 8e3a 0ebe 7b48 e2bd 6c02 f13d
00000060: 171c 9f3d e38d 753d 485d 53be 51d4 b7bd
00000070: 88c4 223e c94b b6be ad06 4c3e 4914 99be
00000080: 37cd 07be cf96 01bf 19d1 0ebf 4c4d 6fbe
00000090: 0b7e 20be a0ef 80be 87fe 083e f855 a03c
000000a0: 08d1 06be efe7 17bc b59d 07bf 6d13 0dbe
000000b0: 0b02 213e 3fd4 5ebc f967 21bf 83fb df3c
000000c0: ce90 7ebd 850b 21be 6df4 033e 82b9 543e
000000d0: 51b7 ad3c 8b53 6ebd cd52 75bd 72d2 913d
000000e0: 717a 1abd 11bb fdbd 388b 43bd 8441 b1be
000000f0: c247 5fbe 3ba5 2d3d 48c1 743e 69c8 eb3c
-0.14296953 0.06815496 0.1479855 0.04003976 -0.03308769 -0.11993707 0.21828206 0.048942287
0.11536871 0.014474947 -0.06421827 0.1265499 0.22251785 0.08907167 0.13412225 0.04132866
-0.0075152824 -0.09348115 0.004953144 -0.1370809 -0.16809338 -0.13889524 -0.11048981 0.1176804
0.077690296 0.059949767 -0.20641053 -0.08976043 0.15895283 -0.35604694 0.19924422 -0.2989829
-0.13261877 -0.5062074 -0.5578781 -0.2336933 -0.15673082 -0.2518282 0.13378344 0.019572243
-0.13165677 -0.009271606 -0.52975017 -0.13776942 0.15723436 -0.013600408 -0.63049275 0.02734161
-0.062149815 -0.1572705 0.1288621 0.2077389 0.021205576 -0.05818514 -0.059893418 0.071202174
-0.037714425 -0.12389196 -0.04774019 -0.34620297 -0.21804717 0.042393904 0.23901856 0.028782086

fc1.weight f4 [100, 128]
00000000: ed0b e63c aa75 603c ec63 f8bd 713e f2bd
00000010: 392a 1fbe ef90 153e 5a9d 9abd 3075 2dbe
00000020: 2156 31be 5d11 9abe ea07 cdbd cb9d b0be
00000030: d4a3 d33e fe82 e33e bf8c 38be f019 abbe
00000040: 1755 04bb fd24 7a3e 2606 02be 1124 25be
00000050: 0bd0 483c 5d6e dbbd 319d 73bd c293 94bd
00000060: b59c 493e 206d 993e f74b 6d3e c1ae 103e
00000070: 370b 99be 456d 2dbe 246b 193e e941 693d
00000080: 18ef eabd 3eb9 2d3e cbd4 9d3c 55ce 6dbe
00000090: 7bf2 abbe 715f f2be aa0e ccbe 436c 53be
000000a0: d8f5 2f3e 293b b1be fcc3 2cbd 7ff2 c83d
000000b0: ef1d b8bc 7829 22be 5411 1d3e 6c94 93be
000000c0: 88b7 363e 1bcc 13be ecaa e0be 01b5 fabe
000000d0: 593f d6bd d11a d6be f4fe c0be e203 c3be
000000e0: 8482 9f3e 807f 003e 9246 313e aef8 7abe
000000f0: ad66 213d 2205 3c3e 4d0e e8bd 9b7e 1b3e
00000100: d964 56be 6e16 60be 2d8e 30bb 11d1 dd3d
00000110: ad5b 9d3d 64de 453e 6ae0 743d 71a3 623e
00000120: f538 97be fa94 f5bd 2888 863e 318a fe3d
00000130: 0d67 d93e 4c3d 693c 197b 373e 6dab 863e
00000140: cdf0 16bc 7983 88be b206 60be a393 cebe
00000150: 89ba 583c 1a86 bf3e 92be 093e 59b0 1a3e
00000160: 1844 3fbe 7a6f b73d 7444 3cbe c5e1 e7bd
00000170: e879 d83d cb32 64b9 ae3a 0e3d 7ad4 5c3e
00000180: dd53 1f3e 1c4b e43c 0b66 55bd 3a8f 9dbc
00000190: 346e a1bb 2123 a73d bb5c ee3d f92d f0bd
000001a0: a923 80be 0701 a5bd d965 13be 60fe 4e3e
000001b0: 47f6 7f3e 909d 833e c801 cc3e 08db 193f
000001c0: b5f6 ad3e 02db b63d c9a4 dcbe d256 65be
000001d0: 7267 a6be 3a0c 36be bfaf 45be 28de cabc
000001e0: d393 91be a2ac febd 88bf 9fbe 15a3 4fbe
000001f0: ae30 98bd 9a60 61be 995a 433e f75e 6a3d
00000200: 811c 17be f78a 4cbc 194a 0dbe 67dc 5ebd
00000210: eba7 0b3e 14d4 cb3e fb82 2e3d d93f 2b3e
00000220: e0d9 65bd 0864 8cbe 92b3 cfbd b752 cbbe
00000230: c65e b93d 8874 9d3e f9c1 93be 8279 1ebe
00000240: 88f4 8f3e 49ed 7d3d ca6c 61be c38b 2abe
00000250: d7a8 563d 687b ccba 1da7 c2bd 1697 3cbe
00000260: b755 463e fb6b c43e 3686 743e 6046 723e
00000270: 54a5 96bd 8df5 36be cccb 00bd 3aaf 1abe
00000280: 4d4f 8d3e 2367 093f 7b6a 0ebc d077 53be
00000290: dcee 40be e131 47be e7f0 a43d e846 26bc
000002a0: 1393 8f3d 605a 33be c691 cfbd fecf 64be
000002b0: b1d9 2fbe 602e 3ebe 0b35 763d 86c4 26bd
000002c0: 59aa e03c 5608 1c3e eb52 50be 0089 3cbe
000002d0: 9fb1 2fbe 58a8 49be c5fc c9be 1943 f4be
000002e0: e0d8 8d3e 4798 ce3d c4c0 1b3e 2ec4 aa3e
000002f0: 296b e03d dec8 df3d 1a3b 50be 13c6 2abe
00000300: 0250 14be 91f7 a9be a5da d93e e63a 883e
00000310: 2569 91bc b4d2 a33e edd9 d7bc 81be 293e
00000320: 75bd 8abe 0eda 97be 16ab 363d 37e2 e93d
00000330: 27c0 193e 6a0c 273e 27b8 ca3d 7887 7b3d
00000340: 2466 0dbd e9ec 8cbe 3174 50be ca61 05bf
00000350: 35b3 8c3e 0a21 d23e ef29 94be 2593 7fbe
00000360: f005 e23d f4c7 523e b042 1a3e c313 d9bd
00000370: 2b28 9cbc cf62 373c 5351 903e 6afb 3f3e
00000380: 78df dc3e 2250 923e 6a7b 83be c20f 77bc
00000390: 18b1 2c3e ee03 8d3d 8d4f 50bd eba5 46bd
000003a0: 88d3 b5be f893 d5be 2d1b 46bd 05c8 85be
000003b0: db45 c5bd b58e ae3d f7eb 293f 723a 2e3f
000003c0: e275 583e ae84 733e a990 1fbd ec35 86be
000003d0: 54d4 8cbe e486 8ebd 512d 393e 9a5b 8bbc
000003e0: d6f9 f3bd 3b50 0b3d 1ef0 e1bd d022 8d3d
000003f0: 8b55 42be 3afc 8dbe 2429 9c3e a13a e73e
0.028081859 0.013699928 -0.121284336 -0.11828316 -0.1554345 0.14606069 -0.07549544 -0.16939235
-0.17318012 -0.30091372 -0.10011275 -0.34495386 0.41335928 0.44435877 -0.1802244 -0.33418226
-0.002019232 0.24428172 -0.12697658 -0.1612704 0.012256633 -0.107144095 -0.05947608 -0.07254745
0.19688685 0.29966068 0.2317351 0.14129163 -0.2989137 -0.16936214 0.14982277 0.056947622
-0.11471385 0.16965196 0.019266507 -0.2322324 -0.33583435 -0.4733844 -0.39854938 -0.20646767
0.17183626 -0.34615448 -0.042179093 0.098118775 -0.022475211 -0.15836132 0.15338641 -0.28824174
0.17843449 -0.14433329 -0.43880403 -0.4896622 -0.10461301 -0.41817334 -0.37694514 -0.380889
0.31154263 0.12548637 0.17312077 -0.24508926 0.03940456 0.18361333 -0.11330853 0.15185015
-0.20936908 -0.21883556 -0.0026940212 0.10830892 0.076835014 0.19323117 0.05978433 0.2213266
-0.29535642 -0.11991306 0.26275754 0.12428702 0.42461434 0.014235806 0.17918052 0.26302662
-0.009212685 -0.26662806 -0.21877554 -0.40347013 0.013228067 0.37407 0.13451603 0.15106334
-0.1867832 0.08956809 -0.18385488 -0.11322359 0.10570127 -0.00021762696 0.03472393 0.21565428
0.15559335 0.027867846 -0.05209927 -0.019233335 -0.0049264673 0.08160997 0.11638781 -0.117275186
-0.25027207 -0.080568366 -0.1439432 0.20214224 0.24996291 0.25706148 0.3984511 0.6009984
0.33977285 0.08928491 -0.4309447 -0.223964 -0.32500798 -0.17778102 -0.19305323 -0.024764135
-0.28433093 -0.12435271 -0.31200814 -0.20277055 -0.0743116 -0.22009507 0.19077529 0.05721947
-0.14756967 -0.012484304 -0.13797797 -0.05440941 0.13638274 0.3981024 0.04260538 0.16723575
-0.056115985 -0.27420068 -0.10141672 -0.39711544 0.0905128 0.3075297 -0.28858927 -0.15476039
0.2811625 0.06199387 -0.22014156 -0.16654877 0.052407112 -0.0015600743 -0.095045306 -0.1841701
0.19368635 0.38363633 0.23879322 0.23659658 -0.073557526 -0.17867108 -0.031444356 -0.15105906
0.27599564 0.53673 -0.008692379 -0.20651174 -0.18841118 -0.19452621 0.08053761 -0.010148741
0.07010474 -0.17514944 -0.10135226 -0.22344968 -0.17172886 -0.18572378 0.06010918 -0.040714763
0.027424978 0.15237555 -0.2034413 -0.18411636 -0.17157601 -0.19693124 -0.3945066 -0.4770744
0.27704525 0.10087638 0.15210253 0.33352798 0.10957939 0.10926984 -0.20335045 -0.16677122
-0.14483646 -0.3319669 0.42549625 0.26607436 -0.017750332 0.3199669 -0.026349032 0.16576578
-0.2709767 -0.2965855 0.044596754 0.114201 0.15014707 0.1631333 0.098984055 0.06140849
-0.034521237 -0.27524498 -0.20356824 -0.5210234 0.27480474 0.41040832 -0.28938243 -0.24958475
0.11036289 0.20584089 0.15064502 -0.105994724 -0.019062122 0.011192991 0.28187045 0.1874825
0.43139243 0.2857676 -0.25680095 -0.015079441 0.16864431 0.06885515 -0.050857116 -0.048498075
-0.35512948 -0.41714454 -0.04836576 -0.26129165 -0.096324645 0.08523313 0.6637568 0.6805793
0.21138719 0.23781082 -0.038956318 -0.26213014 -0.27505744 -0.06959322 0.18083693 -0.017011452
-0.11912887 0.03401206 -0.11032127 0.068914056 -0.18977945 -0.27731496 0.30500138 0.45161918

fc1.bias f4 [100]
00000000: e81c 393d 92d5 403d 98f5 a63d f99a 0f3e
00000010: d134 9c3d 4ae4 f33d 3eb9 a93c fafe dfbd
00000020: 7671 3d3d ee11 eabb 558d 4b3e 47bb e83d
00000030: bc0a a0be 4d93 a33d 7918 48be b670 d8bb
00000040: 6ac7 9bbe 108f 153c 0f7a 723e c687 29be
00000050: 7d23 8b3e 424f e13d 698a febc 7b43 473e
00000060: 8bd4 393c 365d d43d 6871 993e 5f8b acbe
00000070: e8e1 593d 2483 093c fd41 d43d 2f72 213d
00000080: ea53 713d 71f5 4e3c 7c3c b63b 4ffc 8b3d
00000090: 293c 54bc 7071 a53d a11e 0d3e 90f3 e03d
000000a0: 2592 a4be 7d8f 073e 414f edbc db46 19bd
000000b0: cc52 15bb 768f d8be 3637 133e fa5c 803e
000000c0: 3e74 c6bb 1a9e 11bd d9b7 093d 8572 7f3e
000000d0: a1d5 c33d 5b70 1abc 332b 113d 66ef 353e
000000e0: a82b 173e ebfc 6d3e 05ac 583d b122 4a3e
000000f0: 2a20 533d 4c0d a43d 7149 af3d b5e6 2b3d
00000100: 6600 0a3d e66b 21bc 69ec cabe 973c ef3d
00000110: 8bc3 413e ded2 71bd 48ab 31bd b94b ba3d
00000120: 26a1 553d 422d 6abd b4e1 95bd eb76 763d
00000130: d509 1abd 68ff 3bbd 780f 1e3e 7e81 4d3e
00000140: ee03 443e 8cac d2bd 0dd9 6c3b 8d52 3a3d
00000150: c839 babc 6ec3 623d ef86 683e a912 333c
00000160: 95e7 0cbf 8c21 bebe 4633 b2bd 7ba5 323d
00000170: 25f9 a53d 8e53 7cbd 5963 0d3e ce53 7b3d
00000180: 075a 67bc fcfa 8e3c 0065 413e 98f4 aa3c
0.045193583 0.047078677 0.08152312 0.14023961 0.076272614 0.11908777 0.020718213 -0.10937305
0.046250783 -0.0071432507 0.19878133 0.11363845 -0.3125819 0.0798708 -0.19540586 -0.006605233
-0.30425578 0.009128347 0.23679374 -0.165557 0.27175513 0.11001445 -0.031071858 0.19459336
0.011342178 0.10369341 0.29969335 -0.33700082 0.053193957 0.008393083 0.10364149 0.039415535
0.058917917 0.01263176 0.0055614095 0.068352334 -0.012953796 0.08078277 0.13781215 0.10983956
-0.3214275 0.1323833 -0.028968455 -0.03742109 -0.0022784946 -0.42296952 0.1437653 0.25070935
-0.0060563376 -0.035551168 0.033622596 0.2494603 0.09562231 -0.009426202 0.03544159 0.17767105
0.14762747 0.23241012 0.052898426 0.19739796 0.051544346 0.08010349 0.0855893 0.041968066
0.033691786 -0.009852385 -0.39633492 0.116814785 0.1892225 -0.05903899 -0.043376237 0.09096474
0.052155636 -0.057172067 -0.0731844 0.060172003 -0.037607033 -0.04589787 0.15435588 0.20068929
0.19142124 -0.10286817 0.0036140115 0.045488883 -0.02273263 0.055362158 0.22707723 0.010929742
-0.55040866 -0.3713497 -0.08701186 0.043614846 0.08104161 -0.06160312 0.1380743 0.06135922
-0.014120585 0.017453663 0.18886185 0.020868585

fc2.weight f4 [1, 100]
00000000: f8a5 043f 58f3 f33e 18e6 01bf 1b5a 243f
00000010: 8716 10bf 0764 5b3f 960a b7be 4a3a 15be
00000020: b4af 14bf 4791 06bf fb77 343f aa70 12bf
00000030: 18aa 153f 263e b43e 7ffa 733e 0c70 f5be
00000040: 96ef dc3e 6087 23bf 47bd 6f3f 1b5d dc3e
00000050: 42cb 483f dfff cbbe 50a8 b7be 5860 36bf
00000060: a7a6 55bf 95d8 0bbe 63c8 873f 107a b43e
00000070: ddd0 0a3f 01c0 1cbf 5bd6 373f e37e e03e
00000080: e467 f93e cdae 673e f797 04bf 3771 c03e
00000090: 8f92 25bf 0c75 47bf 0d8b 373f 1bfa 153f
000000a0: 2ed0 f33e 9402 2ebf cd3b 11bf b19b 02bf
000000b0: 4002 d73e 6653 253f f94e 0e3f f698 5c3f
000000c0: 92ea 43be 7950 c6be c464 ddbe ae21 3a3f
000000d0: 762e 1e3f 39a3 fbbe f295 37bf 0482 293f
000000e0: ed0f e63e 83dc 363f 36f5 22bf 1ffe 3e3f
000000f0: de1a 1ebf 35dd fd3e 8c85 193f ab31 06bf
00000100: 623f ddbe a8f6 e6be 7f26 cf3e 3d44 4fbf
00000110: cef6 273f 851c d9be 1876 e93e f617 133f
00000120: 975e e23e 85b0 09bf 899c 0dbf d5b9 893e
00000130: b75e 27bf 1e41 f13e 9e28 f83e 18bc 323f
00000140: 5c9c 3a3f 6a9a 843b 2935 19bf 1891 22bf
00000150: 22d7 ffbe d4a2 ea3e c69f 5c3f 2e16 12bf
00000160: 107a 3b3f 6332 013f 20ce b83e 2f2d d43e
00000170: 7013 2b3f 7e31 b13e 0833 233f 0759 dfbe
00000180: 5c8b 19bf 1ce0 02bf 275b 2d3f 5401 f3bd
0.5181575 0.47646594 -0.5074172 0.6419999 -0.56284374 0.85699505 -0.35750264 -0.14573017
-0.580806 -0.52565426 0.70495576 -0.5720316 0.5846267 0.35203665 0.23826025 -0.47937047
0.4315154 -0.6387844 0.9364819 0.43039784 0.78435147 -0.39843652 -0.358706 -0.7124076
-0.83457416 -0.13656838 1.0608028 0.35249376 0.5422495 -0.61230475 0.71811455 0.43846807
0.48712075 0.22625275 -0.5179438 0.37586376 -0.64676756 -0.77912974 0.7169655 0.58584756
0.47619766 -0.67972684 -0.56731874 -0.51018816 0.41993904 0.6458038 0.5558925 0.861709
-0.1913245 -0.3873327 -0.4324094 0.7270764 0.61789644 -0.49147967 -0.71713173 0.66214013
0.44934025 0.71430224 -0.6365541 0.7460651 -0.61759746 0.4958283 0.599694 -0.5241954
-0.4321242 -0.4511006 0.40459058 -0.809635 0.6561097 -0.4240457 0.4559791 0.57458436
0.4421279 -0.5378497 -0.5531698 0.2689959 -0.653789 0.47119993 0.48468488 0.6981826
0.72894835 0.004046728 -0.5984674 -0.63502645 -0.4996882 0.45827353 0.86181295 -0.57065094
0.7323313 0.5046751 0.3609476 0.41440722 0.66826534 0.34608072 0.6374974 -0.4362261
-0.5997827 -0.51123214 0.6771721 -0.11865488
