ml-model/src/best_roadcnn.pth (torch, 83068 bytes, 7 tensors)

conv1.weight f4 [32, 7, 3]
00000000: c195 cd3e 2592 10bd 9471 dfbd 1743 243e
00000010: 02c2 8d3c 3323 10be 89eb 0cbe 8a77 8e3d
00000020: c455 283e a92c 163c 8e51 c83e 060c 773e
00000030: 79fe 873e 2601 403e 1531 fdbd 4d2c bebe
00000040: c561 8b3e 9c65 da3d eae3 fbbd e7d6 833d
00000050: 72de d2bc 16d4 223d d10d 44bd 716b 273e
00000060: 961d 25be a031 96be 2554 1cbe b612 8ebe
00000070: 2a90 663e ae6f 02bf e353 903e c677 c1be
00000080: 69da c73e 964a 573d ac23 99bd 594a a2bd
00000090: 0b6d 38be 6139 3b3e ee30 54bc aeea 0dbe
000000a0: c711 ad3c 5c05 bf3c 68c5 763d 9812 8e3e
000000b0: 7eff 863e 577d cebd 07b1 9f3d ec28 e7bc
000000c0: 2b72 383b f1ce 4dbe 4664 b5be 8567 06bf
000000d0: c04d 213b 448d 063e fef4 cc3b 1dd6 343e
000000e0: bf01 923d 0349 dcbe 103b 033f 7497 f73d
000000f0: 10ce fd3d 144b 95be 038a af3d 0462 07be
00000100: 643d 503e 5739 4fbd 8f0a 533e 9088 78bd
00000110: 15ed 60be bb62 b2be 9da6 cf3e 6418 41be
00000120: 8f74 cf3d 10bc 7bbe c715 c5bd bdd2 e9be
00000130: 93fb 12be 2766 843e 5667 443e 7a34 e03d
00000140: 783e 81be 1ff1 47bd d18b 8c3d 7a2a a3bd
00000150: 988d d93c 7016 27be b6b3 bebb 8ad5 dcbd
00000160: 7ad0 5ebe 5951 443e b1f1 0d3e 67ac 36be
00000170: bea6 323e d941 493e 9c82 a8be 78f4 a0bd
00000180: 34af 59bc 2a9b d1bd d0d0 9dbe d916 53bf
00000190: 5aea bdbe a580 d3be 8898 a23d 39cd aabe
000001a0: 1ac2 913b 5781 9bbe 40a5 9bbe 19b9 d8be
000001b0: 0767 80be c7ba 4abe b240 9c3d d41f ca3d
000001c0: 3341 1a3e e2f4 79be 70c2 b8bd 8a90 8fbe
000001d0: 1db3 b3bd 3884 fabe dd80 0cbe 0a9c 393e
000001e0: cb16 72bd 96b1 0bbe 2e3d acbd 3abc f8be
000001f0: 2634 bdbe 8bf9 8abe 5b83 ebbd dbae c8be
00000200: 9db2 a53e 835e bf3d 7a0a 4f3e f8fb c33a
00000210: e447 c7be 23a9 3f3e ae83 8cbd 7828 6dbe
00000220: 8af9 16bd d89d 43be 1024 a83b e099 42be
00000230: 6605 a53e 20e9 e7be c801 1a3e 54ac e4be
00000240: 529c 6a3d f536 693e 69d6 a73e 94c6 bb3e
00000250: 4a9c d23e a467 2abe 492c 963e 9059 01be
00000260: 78b3 b5bd bba7 debd 01c2 fb3c d639 4bbe
00000270: 5824 8b3e b392 b53e 6eb4 26bd 3ac6 04be
00000280: 4b34 183f e2c8 8a3d 68b4 0d3e a49c 07be
00000290: ac6b 52bd e0a1 103c b233 d5bc 27e6 333e
000002a0: b0e8 20bd 1349 43be 43d6 f4bd 17db 13bd
000002b0: d128 953d 94e9 71bd 83ad 60be 19dc 143e
000002c0: 65bf 99be 567b 113f bf97 d33e 65d4 473d
000002d0: 0e8f 4a3e c535 0f3f ff9d 013c 159a 72be
000002e0: 2634 073e 916f 7a3e 2945 133e 70a5 a2bc
000002f0: ea6a bdbd e7b8 8fbe 3931 a9be ca0f 91be
00000300: 742d 893e 1de0 463e 1428 22be 59e2 abbc
00000310: 086a aa3d 23f8 393e cabd d3bd 21ec 923e
00000320: b0f7 07bf 1c08 3abc a9f7 003e 0ab7 d03e
00000330: 8eba 9abe 7c04 63be efcd 3dbe 49b1 eebe
00000340: 33aa 2ebe e10f 37bd 4079 7d3e e9ec 3c3e
00000350: 5bba 4cbe d887 06bd 3afa f2bc 81db b93e
00000360: 9c21 cb3c f7a3 f9bd d37e 0d3c ee43 5a3d
00000370: ad61 06be e67b 4e3d 9495 79be e37e 533e
00000380: d9f9 693c 6c5f 903e b8c8 e03e ea50 103e
00000390: d172 6ebe 2bd0 1fbe 63b7 4cbe 4e94 cf3e
000003a0: 5131 f03e 2c2b a13e bf81 e3bc 988d 8c3b
000003b0: cd38 d1bc 9979 80be 6ed1 fbbd b30d a8be
000003c0: 1cb1 7b3d a37e 2cbd 8333 85be 96f1 a3bd
000003d0: 9fc3 d03d 138f 03be b3a7 d4be 176f 11bd
000003e0: f06c 3b3d 619f 1f3e 0308 81bc 8827 40be
000003f0: 1f4f 713d c90a c2ba 4052 b6bd 6950 77be
0.40153316 -0.035295624 -0.10910335 0.16041218 0.017304424 -0.14075927 -0.13761725 0.06956394
0.16438967 0.009165921 0.3912472 0.2412568 0.26561335 0.18750438 -0.12362877 -0.37143174
0.2722303 0.10663912 -0.122993305 0.06437474 -0.025740836 0.039753042 -0.04786474 0.1634958
-0.16124567 -0.29334736 -0.15266474 -0.2774865 0.22515932 -0.5095166 0.28189 -0.37786692
0.3903382 0.052561365 -0.07477507 -0.07924337 -0.18010347 0.18283607 -0.012951119 -0.13859054
0.021126641 0.023317985 0.060246855 0.2774856 0.263668 -0.100825004 0.07797437 -0.028217755
0.0028144221 -0.20098473 -0.35428065 -0.5250171 0.0024612993 0.13139826 0.0062547913 0.17659803
0.07129239 -0.43024454 0.51262 0.12089434 0.12392819 -0.29158843 0.085712455 -0.13220984
0.20335919 -0.050591793 0.20609497 -0.06067711 -0.2196544 -0.3484095 0.40556803 -0.1885696
0.10129654 -0.24583459 -0.09623294 -0.45668593 -0.1435378 0.25859186 0.19180045 0.10947509
-0.25242972 -0.048813935 0.06862605 -0.07967086 0.026556775 -0.16317153 -0.005819763 -0.10782917
-0.21759215 0.19171657 0.13861729 -0.17839204 0.1744642 0.19654025 -0.32912147 -0.07859129
-0.013286401 -0.10234673 -0.30823374 -0.8245674 -0.3709286 -0.41309085 0.07939249 -0.33359697
0.0044481875 -0.30372116 -0.30399513 -0.42328718 -0.25078604 -0.19797812 0.07629527 0.09869352
0.15063934 -0.24409822 -0.09021461 -0.28039962 -0.087743975 -0.48929 -0.13721032 0.1812593
-0.05910377 -0.13641962 -0.084101066 -0.48581105 -0.3695385 -0.2714351 -0.114996634 -0.39195904
0.32362834 0.093441986 0.2021884 0.0014952412 -0.38922036 0.18716864 -0.068610534 -0.23159969
-0.036859073 -0.19103181 0.005131252 -0.19004011 0.3223068 -0.45295048 0.15039742 -0.44662726
0.057277985 0.2277487 0.3278077 0.3667494 0.41134864 -0.16641098 0.29330662 -0.12631822
-0.088721216 -0.10871836 0.030732157 -0.19846281 0.27176166 0.35463485 -0.040699415 -0.12966242
0.5945479 0.067765966 0.13838351 -0.13243347 -0.051372215 0.0088276565 -0.026025627 0.17568265
-0.039284408 -0.19070844 -0.1195493 -0.036097612 0.07283176 -0.059060648 -0.2194119 0.14537086
-0.30028835 0.5682882 0.4132671 0.04878654 0.19781134 0.5594142 0.007911204 -0.2369159
0.13203487 0.24456622 0.14381851 -0.019854277 -0.09248908 -0.28070757 -0.33045366 -0.2833236
0.2679249 0.1942143 -0.15835601 -0.020981954 0.08321005 0.18161063 -0.10338934 0.28695777
-0.53112316 -0.0113544725 0.12594475 0.40764648 -0.30220455 -0.2216968 -0.18535589 -0.46619633
-0.17057113 -0.044692878 0.24753284 0.18449749 -0.19992964 -0.032844394 -0.029660333 0.3630028
0.0247963 -0.12189477 0.008636194 0.05328744 -0.13123198 0.050411128 -0.24373466 0.20653872
0.01428076 0.281978 0.43903136 0.14093366 -0.23285986 -0.15606754 -0.19991831 0.40542835
0.46912625 0.3147825 -0.027771829 0.00428934 -0.02553978 -0.25092772 -0.12295805 -0.32822952
0.0614482 -0.042112958 -0.26015863 -0.08005063 0.10193562 -0.12847547 -0.41534194 -0.035506334
0.045758188 0.15588142 -0.01575089 -0.1876508 0.058913346 -0.001480424 -0.08902407 -0.24151768

conv1.bias f4 [32]
00000000: 69b9 48bd e227 35be 39fa bdbe 9d3a cdbb
00000010: 55c7 34be 3079 b5be 00e4 02bf c82f 80be
00000020: 8b34 1ebe 074c 4ebe 95d2 a8be 40be e5be
00000030: 2943 d7be a50c e13e 4918 9dbe 12bd 9dbe
00000040: 8e1e c8be 825f 00bf f057 3ebe d47a da3d
00000050: 7493 c5bd 68c0 a2bd c783 75be 0531 e43d
00000060: e619 893c 2114 fbbc 9f3c f4be ff54 2a3d
00000070: 5ad8 07be 96fa c7be 0176 6bbe 493a cabe
-0.049004946 -0.17690995 -0.37104967 -0.0062630908 -0.17654164 -0.3544402 -0.5112915 -0.25036454
-0.15449731 -0.2014619 -0.3297316 -0.44871712 -0.42043427 0.4395496 -0.3068259 -0.30808312
-0.3908581 -0.50145733 -0.18588233 0.10667959 -0.09647265 -0.07946855 -0.2397605 0.11142162
0.016735982 -0.030649247 -0.477025 0.041584965 -0.13266125 -0.3905837 -0.22994234 -0.39497593

conv2.weight f4 [64, 32, 3]
00000000: 526b 113e 420f b3bd 8fbb b43d 945a 163e
00000010: becf 143e 745f c43d e664 7a3d 472a 243e
00000020: 0a01 9f3d 52f4 02be 3bc7 1c3e f5f5 0f3e
00000030: fe67 e2bc 87f2 74be 2df9 cabe 85cb 68be
00000040: f96e d5bd a0de 073e 1da0 8b3e be8f 623d
00000050: ee88 ebbd a3c4 393e 0876 7b3d 8603 ddbd
00000060: 7d0b 8dbe ee59 43be 84bb bcbd c065 3d3e
00000070: 29cb 49be 7503 ac3d 06c9 333c 19db 22bd
00000080: ce13 ddbd 9f56 343e f9a1 9e3d 1012 323e
00000090: e85e 8f3d e36b 613d 96b8 883d da62 763e
000000a0: 7a40 10be b0ff 343d 4b3b bebe c3c4 9abe
000000b0: 821a 8fbd b032 143e fe55 9a3e 3f08 3b3e
000000c0: cd7f 2ebe 8925 bb3c dc0f 5f3e c239 38bc
000000d0: 5a8b 57be ab09 053d 26b0 8abe 72ad 833e
000000e0: 0870 6d3e f0c7 653e c562 82be da7f b5be
000000f0: 7afa 40be ea07 423e f5ea 6f3d 5408 fbbc
00000100: 4398 95bd c18d 4f3e 6a16 fcbb dc3c 22bd
00000110: d6ff a1be f848 893e 9d9b 5cbe 57b9 48bd
00000120: ed64 8dbd beee f4bd 9cc1 66be 1f2f 2cbe
00000130: f507 9bbd d580 bfbe 9acb e33d 29f9 93bc
00000140: ad82 cabd c7f6 d6be 2cf5 75bd 27a9 5e3e
00000150: 416c d9bd b757 c63d 2d03 1abf 201f be3d
00000160: d29d 943d 8260 91bc e1d2 e43c b42d 06bf
00000170: 7bc8 67be 087f e93b 28d4 3f3e a483 ca3d
00000180: c888 17be 8dc7 783e ee6d e7be 29e4 95bd
00000190: af05 b1be 1657 c03c 3e90 0ebf 9c26 563e
000001a0: a664 46bc 7c9e 01bf 808a b1be 394a 22be
000001b0: 77a3 82be 590e eebe 24e0 263e 16f2 4fbe
000001c0: e36e 8a3d 87b0 113e 9640 95bc 5af3 b23d
000001d0: 2e3a 533d 3db8 df3d d064 d8be 0af1 053d
000001e0: 0339 a8bc a8ed 49be 4b40 833d 54e7 0cbe
000001f0: 8ffd e03c 92ff 9dbd 7898 6b3e 40d7 9a3d
00000200: 3158 7cbe b350 7cbe ec2f d2bd 7e0b 913e
00000210: abf9 973c b5f6 db3c b759 2cbc c5f2 913d
00000220: 2aba e43c a07a af3b 1fed 3bbe c4e6 a9be
00000230: 8f32 2fbe ec07 7e3e 5799 66bd 3fe8 fcbd
00000240: 5abf 65be 509b eb3d 5dc1 e53d 9b05 85bd
00000250: 7188 9fbd c26b 803d 2aab 9dbe 1c83 0b3f
00000260: 3714 e63d b215 09be d903 973e dfe8 e33d
00000270: 1e84 1f3e 5fb9 dfbd 58e4 a23e 8ab9 8bbe
00000280: 0360 e7be e321 743e 3193 5f3e bd0b 0f3e
00000290: bfd4 ad3d 8a56 2c3d 3634 dd3d d192 cdba
000002a0: 4cbc 4dbe 06bc 0abe 0ca5 05be b87c d4bd
000002b0: 8439 9a3d 7a9c 77bd 7071 cfbd 5fca 18be
000002c0: 33bc 1c3d 14e0 2d3d 5322 1cbd 3a12 b73d
000002d0: 5d12 bfb9 2b1c 0abd f95a bfbd 8910 71be
000002e0: 0bd2 02bf 03a2 39bd 32f9 6a3d be1f cdbe
000002f0: ddd8 943e 6f93 f1bd 5069 003e 88ca 3abe
00000300: 711c 653e f172 9fbe b66b 5abf d2a9 9cbc
00000310: b6a3 5ebc 4607 5a3e 0ec4 9dbe acbe 0dbf
00000320: 5547 843d 64e9 4c3d a1c4 17be c4f5 ab3d
00000330: dd7b 013f b4d4 da3d 98ee 58be 54a0 843e
00000340: 2c35 313e 60d2 4e3e 7581 0b3d c9d5 85be
00000350: 908f b9bd b2cb a4be 0e49 a1be 1b73 a8be
00000360: fe4a 9bbe 20ef 6dbe da33 69bd ee0d c73c
00000370: 36b9 ab3d 4332 993d 8378 13be 56f8 99be
00000380: 6130 8ebe 131b 45bd c442 213d e616 11be
00000390: b35d 2bbe 7570 aebc 40d3 4dbd c3c0 00bf
000003a0: ec81 27bf 5661 1bbf bd87 383e 3fe3 55be
000003b0: 09fc 45be 905a e63e 2b21 5f3d cf19 893e
000003c0: 807e 7abf cc54 b3be 0b28 933e 177f 07be
000003d0: 96a4 09be b923 b63c cd27 a3bd 2383 fabd
000003e0: 24d9 e03e 8d68 4ebd 6e6b 34be 30c4 d4be
000003f0: 9820 a9bd 4f30 0ebe c488 7f3e 730f c0bd
0.14201096 -0.087431446 0.088248365 0.1468299 0.14532372 0.09588519 0.06113138 0.16031753
0.0776387 -0.12788513 0.15310375 0.14058669 -0.027637478 -0.23920642 -0.3964323 -0.22733887
-0.10421557 0.13268518 0.27270594 0.055312864 -0.11500727 0.18141417 0.06139186 -0.10791688
-0.27547827 -0.19077274 -0.09215453 0.18495846 -0.19706406 0.08399097 0.010973221 -0.03975973
-0.10794793 0.17611168 0.077457376 0.17389703 0.07000524 0.05503453 0.06675832 0.24061146
-0.14087096 0.044189155 -0.37154612 -0.30228242 -0.06987478 0.14472461 0.30143732 0.18264864
-0.1704094 0.022845047 0.21783394 -0.011244239 -0.21049252 0.032479923 -0.27087516 0.25718266
0.23187268 0.22439551 -0.2546598 -0.35449106 -0.18845549 0.18948331 0.05857368 -0.03064362
-0.07304432 0.20268919 -0.0076931017 -0.03960882 -0.316405 0.26813483 -0.21543737 -0.04900488
-0.06904016 -0.11959599 -0.22534794 -0.1681485 -0.07569877 -0.3740298 0.11122818 -0.018063145
-0.09888206 -0.4198515 -0.060048267 0.21744214 -0.10616351 0.09684699 -0.60161096 0.092832804
0.07256664 -0.017746214 0.027932586 -0.5241349 -0.22635071 0.007125739 0.18733275 0.0988839
-0.14798272 0.24294873 -0.45201057 -0.07318909 -0.3457465 0.023479026 -0.55688846 0.20913166
-0.012108957 -0.5063245 -0.3467598 -0.15848626 -0.2551534 -0.4649532 0.1629644 -0.20307192
0.06759431 0.14227496 -0.018219274 0.08737822 0.051569156 0.109238125 -0.42264414 0.032700576
-0.020534998 -0.19719565 0.06408747 -0.1376012 0.027464656 -0.07714762 0.23007381 0.07560587
-0.24643017 -0.2464016 -0.102630466 0.2832908 0.018551668 0.026851038 -0.010519437 0.07126383
0.027920801 0.005355194 -0.18352173 -0.33183873 -0.1710913 0.2480771 -0.05629858 -0.12348985
-0.22436276 0.11504233 0.11218522 -0.0649521 -0.07789696 0.06270553 -0.3079465 0.5449693
0.112343244 -0.13387182 0.29495123 0.11128401 0.15577742 -0.109240286 0.31814837 -0.27289993
-0.4519044 0.23841052 0.21833493 0.13969322 0.08487844 0.042074718 0.10800974 -0.0015684013
-0.20091361 -0.13548288 -0.13051242 -0.10375351 0.075305015 -0.060451962 -0.10129058 -0.14920948
0.03826542 0.042450026 -0.03811867 0.08939023 -0.0003644404 -0.03371827 -0.093435235 -0.23541464
-0.5110175 -0.045320522 0.057366557 -0.4006328 0.29071704 -0.11795699 0.12540174 -0.18241322
0.22374131 -0.3114238 -0.85320604 -0.019123945 -0.013588836 0.21291837 -0.3081364 -0.5536907
0.06458918 0.050027266 -0.14821102 0.083964854 0.50579625 0.10685101 -0.21184766 0.2590357
0.1730544 0.20197439 0.034059007 -0.26139668 -0.090605855 -0.32186657 -0.3150105 -0.32900319
-0.30330652 -0.2323575 -0.056934215 0.024298634 0.083849356 0.0748029 -0.1440144 -0.30072278
-0.27771285 -0.048121523 0.039370313 -0.14168891 -0.16734962 -0.021293858 -0.05025029 -0.5029413
-0.6543262 -0.606954 0.1802053 -0.20887469 -0.19334425 0.4499097 0.05447499 0.26777503
-0.97849274 -0.35025632 0.28741488 -0.13232075 -0.13441691 0.02223383 -0.07966576 -0.122320436
0.43915665 -0.050392676 -0.17619106 -0.4155593 -0.0825817 -0.13885616 0.24954516 -0.09377947

conv2.bias f4 [64]
00000000: c262 cabd c424 e03c 31d8 323e 9c06 27bc
00000010: cbb3 713c 71b4 3abe e038 df3d db56 46bd
00000020: b296 233e 1551 743d fe67 6bbe eac9 833e
00000030: cd3a 9a3d 48a7 123e f70b b03c a2a4 2e3d
00000040: 22e7 bebc 02c6 acbc 541f d8bd bfe9 c2bd
00000050: 9a3a 5ebe f8c6 d1bc c7e0 bc3c 3dd4 5abe
00000060: c0e4 993d eaf5 d23d ae73 74be c6df adbd
00000070: 883a c43c 4c99 10bf 9a24 263e b43b 6ebe
00000080: ed62 63be 70ce cbbe 7a0c 01bf 74d4 e6be
00000090: 9a54 3abe d1f0 a2be 3800 0e3e 22a3 503e
000000a0: b82d a0bd 1652 bf3b d5b9 d8be ecf3 94bd
000000b0: 9fd2 213e 9e83 233c c4ac 16bf a45e 9e3c
000000c0: 5ecf e1bd f522 3bbe 1b40 003e af73 26bd
000000d0: b4d4 283d b7d8 4e3e 57c0 3cbb f97f 093d
000000e0: bde0 8dbe 60c2 07be 8ccc 44bd 482f c3bd
000000f0: 22fa 91be 1065 333d ebf8 8a3c cac3 d6bc
-0.09882118 0.027361281 0.17465283 -0.010194447 0.014752339 -0.18232895 0.1089952 -0.048422676
0.15975454 0.05964764 -0.22988889 0.25739986 0.075307466 0.14321625 0.02149008 0.042637475
-0.023303572 -0.021090511 -0.1055285 -0.0951724 -0.21702042 -0.025607571 0.023056401 -0.21370025
0.07514334 0.10300811 -0.23872253 -0.08489947 0.023953691 -0.5648391 0.162249 -0.23264962
-0.22205706 -0.39805937 -0.5040966 -0.45083964 -0.18196335 -0.31824353 0.13867271 0.2037473
-0.0782122 0.005838643 -0.4232928 -0.07273087 0.15803002 0.00998011 -0.5885737 0.019332238
-0.1102588 -0.18275054 0.12524454 -0.04063767 0.041218475 0.20199858 -0.0028801167 0.03356931
-0.27710524 -0.13257742 -0.048046634 -0.095305026 -0.2851115 0.043797553 0.016964396 -0.026216406

fc1.weight f4 [100, 128]
00000000: 9703 b63d 7975 223d 376b 5cbe 7bc6 9f3d
00000010: a355 fc3d a9d7 053e 5a47 a33d dace 83bc
00000020: 2d41 15bf dc5c 8ebe 7752 6f3c 8cb9 9dbe
00000030: cc40 37bd e579 923e 4d2a 83be a6bb afbe
00000040: 4879 ca3d 6a51 6a3e f477 e43c d885 ebbd
00000050: fd08 4f3d 4f95 4bbe 26b9 4c3c 13e1 10be
00000060: 2fb9 093e ea23 7d3e d8e9 503e 99f8 533e
00000070: 7184 abbe 7016 b6be 6f96 2cbd 7a2e 6ebb
00000080: 04bd 83be 045c 423e 2871 acbd bdbe ccbe
00000090: 91f0 6ebe 77b3 21bf d9ae 00be 6fbc 21be
000000a0: 73d1 353e 2973 b93e 8845 f5bd c1d3 003d
000000b0: 438f 453d d95e 1bbd cab6 0e3c 8aac e3bd
000000c0: e817 f63d 264c b03c e5f9 93be aae2 10bf
000000d0: a118 94be 61dc 94be 3b52 9abd 4346 25bd
000000e0: 7249 ca3e c3be 5c3e 3126 943e ac9a 3d3e
000000f0: 944c b3bc 7291 2e3e 6df8 13be 71e0 8ebd
00000100: 690b 6ebe 3570 46be a4d9 e8ba dacf ea3d
00000110: 6ebb 37bc 3f59 bd3d 2b77 37bd 62c2 8c3d
00000120: cef9 46be c001 cbbe e5c8 d73e 2a55 ae3e
00000130: 5861 093f 02bc e23e 497d 0d3f ecef 523e
00000140: 4a20 b0bc 812c c9be 81e7 b3be 179c a1be
00000150: b4bd 973e 30be 6f3e 6103 92bd b25c b53d
00000160: 8db6 e2bd 61df 703c 74a0 95be 1c76 7dbe
00000170: 6124 93be 8f11 2f3d 87dc 453e bc5a 083e
00000180: 03dd aa3e e1fb 89bd 8eb5 79bd b61d ebbc
00000190: b127 abbd 8240 163e 10d2 c13e eb77 c83e
000001a0: e6db 24be 59ff 0cbe a95d 8d3d 4473 a33c
000001b0: c58c 043d f526 923e b181 073f ea5c bc3e
000001c0: a3e7 f53d b837 34be 8b0f 67be e82d b0be
000001d0: 0640 36be 83af 97be 6aa8 a6bd aa2d a5bd
000001e0: 01c2 7ebe d58e c4be 6eb1 b1be 8f59 db3c
000001f0: e95d e6bc 71b5 d9bc dc86 553e 510c b2bd
00000200: 6518 47be ebc8 a3be 7b60 82be 6b09 71bc
00000210: 50f9 873e 3aad e43e be9a afbc 768d e93d
00000220: da5e 81be 4dd1 d0bd c106 33be dca2 9bbe
00000230: 2a43 bd3d 9a5a 1a3e 9005 623d bdc8 34bd
00000240: 4b0e 5b3e 2b05 ddbd b482 4dbd 14d9 1abe
00000250: d949 edbd 3516 24be 8584 1bbe 4833 dfbd
00000260: 4683 a63d ec00 b63e a9bc 9a3e d45a b63e
00000270: 596b 35be 951b 8fbe 7632 34be 91b9 8ebd
00000280: f559 f2bd ed00 b93e cd05 853b 4540 27bd
00000290: afcd c3bd 5ca7 5fbd 1ac7 2abe 02ad 83be
000002a0: bdcc 8a3e bc37 fc3c 1fde 82be a4d2 24be
000002b0: 0e6e 6d3d 844b c03d 7a1b 893c a797 16be
000002c0: e98b c13d 6574 0c3e de7f 2d3c ca3e a4be
000002d0: 2e54 ecbd af4a 81be 0061 4a3c 3480 babc
000002e0: 9745 ac3e 9c4e fd3d be88 e13e a713 88bc
000002f0: b627 943e 5f8a 333e 1b3c 9ebe 0e0e 16be
00000300: 9311 e0be 1964 14be 82fd e53e 7f47 443e
00000310: ab6c 2bbe 3dcd 4bbe e7d0 3cbd 9e4c 863e
00000320: 4e0f c2be 1f4c d1be 7023 b13d 9ff2 a23e
00000330: 2009 eb3e 73e3 333f 2533 a93e 0776 8b3e
00000340: af43 8dbd 736e 5abe 348b 94bd 914c 15be
00000350: 4eeb bc3e 7769 783e 5514 19be 3693 4bbd
00000360: 55b3 dabd 8fbd 193e 91fa 20be 28c2 08be
00000370: 8851 22bc 101f b33d f4e9 033e 96db 583d
00000380: 6d85 b83e 6368 d03d 8f92 9cbe 8f38 593d
00000390: 8730 11bc 2825 723e a192 bb3d 531b 463e
000003a0: c5ef 4d3e 299e 49ba d2e7 8ebd 1655 81be
000003b0: f907 083e fc1c a63e 8117 db3e 5e7f fe3e
000003c0: 5b01 c83e 90a1 d83d e6b7 86be 4c29 a2be
000003d0: 4971 f9be 5b15 9bbe 7212 703d 3e83 c4bd
000003e0: a511 72be 13f3 13be d84a efbd a0fc f7be
000003f0: b748 0739 4b50 843b 849d 833e 4fb8 1abb
0.088874035 0.039662812 -0.21525274 0.07801529 0.123210214 0.13070549 0.079725936 -0.016089845
-0.58302575 -0.2780522 0.0146070635 -0.30805624 -0.04473953 0.28608623 -0.2561821 -0.34322852
0.09886414 0.2288262 0.02788923 -0.11500138 0.05054568 -0.19881175 0.012495315 -0.14148359
0.13449548 0.24720731 0.20401704 0.20700301 -0.33499482 -0.35563993 -0.042135652 -0.003634362
-0.25730145 0.18980414 -0.0842002 -0.39989272 -0.23333956 -0.63164467 -0.12566699 -0.15794538
0.1775568 0.36220673 -0.11976153 0.031451944 0.04823233 -0.03793225 0.0087105725 -0.111168936
0.120162785 0.021520685 -0.28901592 -0.5659586 -0.2892504 -0.29074386 -0.075352155 -0.04035021
0.3950916 0.21557145 0.28935388 0.18516034 -0.021887101 0.1704767 -0.14450236 -0.069764026
-0.2324654 -0.19378741 -0.0017765057 0.11465426 -0.01121412 0.09245538 -0.04479138 0.06873013
-0.1943123 -0.39649773 0.42145458 0.3404935 0.5366416 0.44284064 0.55269295 0.20599335
-0.021499772 -0.39291766 -0.3513756 -0.315644 0.2963692 0.23412395 -0.07129551 0.08855571
-0.11069975 0.014701695 -0.2922398 -0.24752086 -0.28738692 0.042741355 0.19322406 0.13315862
0.33371744 -0.06737495 -0.06096416 -0.02870069 -0.0835718 0.14673045 0.37855577 0.3915399
-0.1609951 -0.13769282 0.0690263 0.019952424 0.03236081 0.28545347 0.5293227 0.36789638
0.12007072 -0.1759938 -0.22564523 -0.34410024 -0.1779786 -0.29626092 -0.08137591 -0.0806535
-0.24878694 -0.38390222 -0.3470568 0.026776103 -0.028120952 -0.026575776 0.20852226 -0.086937554
-0.194429 -0.31989226 -0.25464234 -0.014711718 0.26557398 0.4466341 -0.021436092 0.11403935
-0.25267678 -0.10196171 -0.17483045 -0.3039769 0.09241326 0.15073624 0.055181086 -0.04413675
0.21392171 -0.10792001 -0.050173476 -0.15121871 -0.11586351 -0.16024096 -0.15187271 -0.10898453
0.08130507 0.35547578 0.3022206 0.3561617 -0.17716731 -0.2795073 -0.17597374 -0.06968988
-0.11833564 0.3613352 0.0040595294 -0.040832777 -0.095607154 -0.054602966 -0.16677514 -0.25717932
0.27109328 0.030788295 -0.2556009 -0.16095978 0.057966284 0.093894035 0.016736735 -0.14706288
0.09450514 0.13716276 0.010589568 -0.32079154 -0.115394935 -0.25252292 0.012352228 -0.02276621
0.33646843 0.12368509 0.44049639 -0.016610933 0.28936547 0.17533253 -0.30905232 -0.14653799
-0.43763408 -0.14491309 0.44919974 0.19167899 -0.16740672 -0.19902511 -0.046097662 0.2623033
-0.37902302 -0.40878388 0.08649337 0.3182573 0.459054 0.70268935 0.33046833 0.27238485
-0.06897675 -0.21331196 -0.072531134 -0.14579989 0.36898273 0.24258982 -0.14949162 -0.04970094
-0.10678736 0.15013717 -0.15720583 -0.13355315 -0.009907134 0.08746159 0.12882215 0.05294379
0.36039296 0.1017616 -0.30580565 0.053032454 -0.0088616675 0.23646986 0.091588266 0.19346361
0.20110996 -0.0007691109 -0.0697781 -0.25260228 0.13284291 0.32443988 0.4279137 0.49706548
0.39063534 0.105776906 -0.26312178 -0.31672132 -0.48719242 -0.3028973 0.05861134 -0.09595345
-0.23639543 -0.14448194 -0.11684197 -0.48434925 0.00012901692 0.004037892 0.25706112 -0.0023608392

fc1.bias f4 [100]
00000000: 8d96 c13d 259a d03c 87cb d53d d1e9 4c3d
00000010: debb 14bd 2b91 db3d 73a1 443c 8e84 7dbe
00000020: be6a a73c f379 d1bb 0f73 573e 3d74 233d
00000030: 83b2 0ebc e5f3 083e a022 3c3e 276a b6bc
00000040: 1b04 e2bd f2c4 b6bb c0df 3c3e 91ab 653c
00000050: 038e 2e3e a1e3 8f3d 270e 1c3e 8c55 dd3d
00000060: 0167 8fbd 6e97 733c 106e 513e 48d1 84bd
00000070: d8b5 9f3c 71ef 193d 08c7 fa3d 50b6 d13c
00000080: a5f6 573d 527b 81bd 43c8 43bd 918b f93d
00000090: ad5d f0bb 64cb 103e ce81 d63d 3b7e 8dbc
000000a0: 75ab ffbc dc0b ff3d 0fa1 88bd 4957 28bd
000000b0: ca6e c3be 7170 f9be d4e9 113e fcd6 3b3e
000000c0: fa78 10bf f172 f3bd e785 ebbc 02f6 653e
000000d0: 956c dd3d e7a4 3abe 5ee9 e4bb 55f5 de3c
000000e0: 1398 913e 351c 3b3e 953f 3c3d f210 d43d
000000f0: a8db 9c3c 3dd8 1639 7703 103e 818c aebc
00000100: a35e 443d 6976 4abd 1170 b1bc a5ae ae3d
00000110: 6af6 443e f58c d9bb 41f2 73be 8f9a 603d
00000120: 4eaa 283e 45f9 aebd 8f64 15bd 5227 f8bc
00000130: c561 57bd 2aa3 05be 6006 063e 835b 383e
00000140: 9510 103e 7956 8d3d f214 56bb df65 7b3b
00000150: fa82 c63d c7c9 76be a9a3 cb3d e648 8ebd
00000160: dfe1 0dbe b9ed d3be c650 bcbd bedf f93c
00000170: f49a 4d3d c24e 6d3b ba55 ae3d 2c10 cb3d
00000180: 4f59 0fbc 2766 223d ac10 243e 70f5 07bd
0.094525434 0.025464127 0.104392104 0.050027672 -0.036311977 0.10721048 0.012001383 -0.24757597
0.02043664 -0.0063927113 0.21039985 0.039905775 -0.008709553 0.13374288 0.18372583 -0.022267414
-0.11035939 -0.005577677 0.18444729 0.014017955 0.1704636 0.07025839 0.15239774 0.108073324
-0.07002068 0.014867647 0.20452142 -0.0648523 0.01949589 0.037581865 0.122449934 0.025599629
0.052725453 -0.063223496 -0.047798406 0.12184823 -0.007335386 0.14140087 0.10473977 -0.017272105
-0.031209687 0.12453434 -0.066713445 -0.041098867 -0.38170463 -0.48718598 0.14249355 0.18343729
-0.56434596 -0.11887158 -0.028750373 0.22457126 0.10811726 -0.18226968 -0.0069858273 0.027216593
0.28436336 0.18272479 0.045959074 0.103547946 0.019147709 0.0001438567 0.14063822 -0.021307232
0.047941815 -0.04942933 -0.021659883 0.085294046 0.19234625 -0.006639118 -0.23822881 0.0548349
0.16471216 -0.08543638 -0.036472853 -0.030292187 -0.052583475 -0.13050523 0.1308837 0.18003659
0.14068826 0.06901259 -0.0032666293 0.003836028 0.096929505 -0.2410041 0.09943325 -0.06947498
-0.13855694 -0.41392305 -0.09195094 0.030502196 0.050196603 0.0036210273 0.08512445 0.09915194
-0.00874932 0.0396482 0.16021985 -0.03319305

fc2.weight f4 [1, 100]
00000000: d24d 2f3f 11b4 1a3f fe68 14bf cf17 043f
00000010: 7008 f8be df0e 803f b8ff 24bf 9802 0c3e
00000020: f482 28bf a8cf 0bbf 1883 493f b82f 16bf
00000030: e2df 10bf 62ef 1b3f e185 0d3f e214 04bf
00000040: acec d23e 7714 13bf c08d 543f 6392 913e
00000050: b5b8 293f bcb9 39bf c954 0e3f 0234 34bf
00000060: 20d0 f8be 1fed bdbd fcff 5b3f c96a 453e
00000070: 7e56 fa3e de50 12bf 81a3 273f e732 b63e
00000080: 83d1 db3e b4ee 5abb 2ef6 2fbf 76fe e73e
00000090: 35b2 41bf 10a4 5ebf 31f8 1b3f d382 df3e
000000a0: 492c 693e b252 29bf 3de0 0cbf a3a1 01bf
000000b0: d111 af3e 8b6e eb3e e9a9 043f 5941 703f
000000c0: a9b4 273f 48fa 5ebd 0cba 07bf 40da 583f
000000d0: b53a 1a3f 48b3 cfbe 9618 22bf e1a5 0d3f
000000e0: c94a 603f 6dd9 693f 1641 03bf d6b4 1c3f
000000f0: dfdf 1abf 885c 113f 461d 083f bf89 e7be
00000100: 65e1 ecbe 6010 c0be ea49 b83e 57e5 6ebf
00000110: ead4 253f 73b3 00bf 8dfd e83e 3404 153f
00000120: 86a6 303f 4021 eabe eeb2 15bf fdbb dd3e
00000130: a338 1cbf d09c f13e d02b 313f 8fd8 0d3f
00000140: ed20 323f 803a 0dbf acd2 f9be f64f 2ebf
00000150: 93fb 0dbf 62e4 f73e 2fd5 493f 80e8 f2be
00000160: 36e6 4fbe ec49 023f 66cb bf3e dac8 073f
00000170: 512d bc3e 651c 7f3e ec9d 103f 3a13 28bf
00000180: 8c5e 06bf 1b9e 04bf 7f55 3e3f 1e51 05bf
0.6847812 0.6043101 -0.57972705 0.5159883 -0.48443937 1.0004538 -0.64452696 0.13672864
-0.6582482 -0.54613733 0.7871566 -0.58666563 -0.5659162 0.60912144 0.5528241 -0.51594365
0.4119619 -0.574531 0.83028793 0.28431997 0.66297466 -0.72549033 0.5559812 -0.7039186
-0.48596287 -0.09273743 0.85937476 0.19279017 0.48894113 -0.57154644 0.6548386 0.3558571
0.42933282 -0.0033406438 -0.68735015 0.45311326 -0.7566255 -0.8696909 0.60925585 0.43654498
0.227708 -0.6614181 -0.5502966 -0.50637263 0.3419328 0.45982775 0.5182176 0.9384971
0.6551004 -0.054437906 -0.5301826 0.84708023 0.6024583 -0.40566468 -0.63318765 0.55331236
0.87614113 0.9134739 -0.5127119 0.61213434 -0.6049785 0.56781816 0.5316967 -0.4522228
-0.46265712 -0.37512493 0.35993892 -0.93318695 0.64778006 -0.5027382 0.45505944 0.5820954
0.69004095 -0.45728493 -0.5847615 0.43307486 -0.6102392 0.4718995 0.6920748 0.5540857
0.6958149 -0.5516739 -0.48793542 -0.6809076 -0.55461997 0.4841643 0.7884092 -0.47443008
-0.20302662 0.50894046 0.37459868 0.5304085 0.36753324 0.24913175 0.5649097 -0.6565434
-0.5248802 -0.5180375 0.74349207 -0.520769
